result/diffprep_flex/pbcseq/end_model.pth (torch, 1335 bytes, 2 tensors)

linear.weight f4 [2, 24]
000000 ad 90 65 3c fd 0b f2 bd 73 8b 70 3d 5e 40 09 3e
       0.014011544 -0.11818693 0.05872674 0.1340346
000010 e9 7a c2 bd 01 31 4e 3e 4b 8f 26 3d 0c 59 47 3e
       -0.094960995 0.20135881 0.040664 0.19467562
000020 e7 5f 87 3b 15 3a 1d be d6 70 3c 3d 02 b0 b7 3c
       0.0041313055 -0.15354188 0.046006046 0.022422794
000030 36 fe 04 bd f2 66 31 3d 93 25 25 3d 3f 01 b3 bd
       -0.032468997 0.043311067 0.040319037 -0.08740472
000040 06 16 f0 3c 58 45 1a bc cf c8 54 3e a5 34 01 bd
       0.029307377 -0.009415947 0.20779727 -0.031544346
000050 7a c2 15 bd 69 fa bc bd 9e f8 36 be c9 18 51 3d
       -0.03656242 -0.092274494 -0.17868277 0.051049028
000060 cb fb d2 3c 17 18 1b 3d 03 93 bf 3c 44 f0 94 3d
       0.02575483 0.03786477 0.02338553 0.072723895
000070 b7 ef 97 be e2 f6 42 3d 75 fb d1 bc dd 85 d2 3d
       -0.29675075 0.047598727 -0.0256326 0.10279439
000080 8c cb 22 3e 30 43 6b bd 56 e0 3b be a2 ef e2 bd
       0.1589796 -0.057437122 -0.18347296 -0.110808626
000090 4b 91 92 3e b4 9f 20 be 5c b5 03 3d 40 9b d3 bc
       0.28626475 -0.15685922 0.03215538 -0.025830865
0000a0 17 62 4d 3e c9 42 9f bd 69 60 fd 3d 21 a5 c7 3d
       0.2005695 -0.0777641 0.123719044 0.09748293
0000b0 c5 84 16 be 5a 60 97 3d 7f ed 13 3d 5e eb a1 bd
       -0.14699085 0.073914245 0.036115166 -0.07906221

linear.bias f4 [2]
000000 15 df 82 bd ea b2 8e bc
       -0.06390206 -0.017419297
